…
start_epoch: 0
sync_bn: False
train_gpu: [3]
train_h: 473
train_list: ./list/fine_train_labeled_engg5104.txt
train_w: 473
use_aspp: False
use_ocr: False
use_ppm: True
val_list: ./list/fine_val_engg5104.txt
weight: None
weight_decay: 0.0001
workers: 16
world_size: 1
zoom_factor: 8
[2022-05-04 02:29:15,412 INFO train.py line 152 377246] => creating model ...
[2022-05-04 02:29:15,412 INFO train.py line 153 377246] Classes: 19
[2022-05-04 02:29:15,412 INFO train.py line 154 377246] PSPNet(
  (criterion): CrossEntropyLoss()
  (backbone): MobileNetV3(
    (features): Sequential(
      (0): Sequential(
        (0): Conv2d(3, 16, kernel_size=(3, 3), stride=(2, 2), padding=(1, 1), bias=False)
        (1): BatchNorm2d(16, eps=1e-05, momentum=0.1, affine=True, track_running_stats=True)
        (2): h_swish(
          (sigmoid): h_sigmoid(
            (relu): ReLU6(inplace=True)
          )
        )
      )
      (1): InvertedResidual(
        (conv): Sequential(
          (0): Conv2d(16, 16, kernel_size=(3, 3), stride=(1, 1), padding=(1, 1), groups=16, bias=False)
          (1): BatchNorm2d(16, eps=1e-05, momentum=0.1, affine=True, track_running_stats=True)
          (2): ReLU(inplace=True)
          (3): Identity()
          (4): Conv2d(16, 16, kernel_size=(1, 1), stride=(1, 1), bias=False)
          (5): BatchNorm2d(16, eps=1e-05, momentum=0.1, affine=True, track_running_stats=True)
        )
      )
      (2): InvertedResidual(
        (conv): Sequential(
          (0): Conv2d(16, 64, kernel_size=(1, 1), stride=(1, 1), bias=False)
          (1): BatchNorm2d(64, eps=1e-05, momentum=0.1, affine=True, track_running_stats=True)
          (2): ReLU(inplace=True)
          (3): Conv2d(64, 64, kernel_size=(3, 3), stride=(2, 2), padding=(1, 1), groups=64, bias=False)
          (4): BatchNorm2d(64, eps=1e-05, momentum=0.1, affine=True, track_running_stats=True)
          (5): Identity()
          (6): ReLU(inplace=True)
          (7): Conv2d(64, 24, kernel_size=(1, 1), stride=(1, 1), bias=False)
          (8): BatchNorm2d(24, eps=1e-05, momentum=0.1, affine=True, track_running_stats=True)
        )
      )
      (3): InvertedResidual(
        (conv): Sequential(
          (0): Conv2d(24, 72, kernel_size=(1, 1), stride=(1, 1), bias=False)
          (1): BatchNorm2d(72, eps=1e-05, momentum=0.1, affine=True, track_running_stats=True)
          (2): ReLU(inplace=True)
          (3): Conv2d(72, 72, kernel_size=(3, 3), stride=(1, 1), padding=(1, 1), groups=72, bias=False)
          (4): BatchNorm2d(72, eps=1e-05, momentum=0.1, affine=True, track_running_stats=True)
          (5): Identity()
          (6): ReLU(inplace=True)
          (7): Conv2d(72, 24, kernel_size=(1, 1), stride=(1, 1), bias=False)
          (8): BatchNorm2d(24, eps=1e-05, momentum=0.1, affine=True, track_running_stats=True)
        )
      )
      (4): InvertedResidual(
        (conv): Sequential(
          (0): Conv2d(24, 72, kernel_size=(1, 1), stride=(1, 1), bias=False)
          (1): BatchNorm2d(72, eps=1e-05, momentum=0.1, affine=True, track_running_stats=True)
          (2): ReLU(inplace=True)
          (3): Conv2d(72, 72, kernel_size=(5, 5), stride=(2, 2), padding=(2, 2), groups=72, bias=False)
          (4): BatchNorm2d(72, eps=1e-05, momentum=0.1, affine=True, track_running_stats=True)
          (5): SELayer(
            (avg_pool): AdaptiveAvgPool2d(output_size=1)
            (fc): Sequential(
              (0): Linear(in_features=72, out_features=24, bias=True)
              (1): ReLU(inplace=True)
              (2): Linear(in_features=24, out_features=72, bias=True)
              (3): h_sigmoid(
                (relu): ReLU6(inplace=True)
              )
            )
          )
          (6): ReLU(inplace=True)
          (7): Conv2d(72, 40, kernel_size=(1, 1), stride=(1, 1), bias=False)
          (8): BatchNorm2d(40, eps=1e-05, momentum=0.1, affine=True, track_running_stats=True)
        )
      )
      (5): InvertedResidual(
        (conv): Sequential(
          (0): Conv2d(40, 120, kernel_size=(1, 1), stride=(1, 1), bias=False)
          (1): BatchNorm2d(120, eps=1e-05, momentum=0.1, affine=True, track_running_stats=True)
          (2): ReLU(inplace=True)
          (3): Conv2d(120, 120, kernel_size=(5, 5), stride=(1, 1), padding=(2, 2), groups=120, bias=False)
          (4): BatchNorm2d(120, eps=1e-05, momentum=0.1, affine=True, track_running_stats=True)
          (5): SELayer(
            (avg_pool): AdaptiveAvgPool2d(output_size=1)
            (fc): Sequential(
              (0): Linear(in_features=120, out_features=32, bias=True)
              (1): ReLU(inplace=True)
              (2): Linear(in_features=32, out_features=120, bias=True)
              (3): h_sigmoid(
                (relu): ReLU6(inplace=True)
              )
            )
          )
          (6): ReLU(inplace=True)
          (7): Conv2d(120, 40, kernel_size=(1, 1), stride=(1, 1), bias=False)
          (8): BatchNorm2d(40, eps=1e-05, momentum=0.1, affine=True, track_running_stats=True)
        )
      )
      (6): InvertedResidual(
        (conv): Sequential(
          (0): Conv2d(40, 120, kernel_size=(1, 1), stride=(1, 1), bias=False)
          (1): BatchNorm2d(120, eps=1e-05, momentum=0.1, affine=True, track_running_stats=True)
          (2): ReLU(inplace=True)
          (3): Conv2d(120, 120, kernel_size=(5, 5), stride=(1, 1), padding=(2, 2), groups=120, bias=False)
          (4): BatchNorm2d(120, eps=1e-05, momentum=0.1, affine=True, track_running_stats=True)
          (5): SELayer(
            (avg_pool): AdaptiveAvgPool2d(output_size=1)
            (fc): Sequential(
              (0): Linear(in_features=120, out_features=32, bias=True)
              (1): ReLU(inplace=True)
              (2): Linear(in_features=32, out_features=120, bias=True)
              (3): h_sigmoid(
                (relu): ReLU6(inplace=True)
              )
            )
          )
          (6): ReLU(inplace=True)
          (7): Conv2d(120, 40, kernel_size=(1, 1), stride=(1, 1), bias=False)
          (8): BatchNorm2d(40, eps=1e-05, momentum=0.1, affine=True, track_running_stats=True)
        )
      )
      (7): InvertedResidual(
        (conv): Sequential(
          (0): Conv2d(40, 240, kernel_size=(1, 1), stride=(1, 1), bias=False)
          (1): BatchNorm2d(240, eps=1e-05, momentum=0.1, affine=True, track_running_stats=True)
          (2): h_swish(
            (sigmoid): h_sigmoid(
              (relu): ReLU6(inplace=True)
            )
          )
          (3): Conv2d(240, 240, kernel_size=(3, 3), stride=(1, 1), padding=(1, 1), groups=240, bias=False)
          (4): BatchNorm2d(240, eps=1e-05, momentum=0.1, affine=True, track_running_stats=True)
          (5): Identity()
          (6): h_swish(
            (sigmoid): h_sigmoid(
              (relu): ReLU6(inplace=True)
            )
          )
          (7): Conv2d(240, 80, kernel_size=(1, 1), stride=(1, 1), bias=False)
          (8): BatchNorm2d(80, eps=1e-05, momentum=0.1, affine=True, track_running_stats=True)
        )
      )
      (8): InvertedResidual(
        (conv): Sequential(
          (0): Conv2d(80, 200, kernel_size=(1, 1), stride=(1, 1), bias=False)
          (1): BatchNorm2d(200, eps=1e-05, momentum=0.1, affine=True, track_running_stats=True)
          (2): h_swish(
            (sigmoid): h_sigmoid(
              (relu): ReLU6(inplace=True)
            )
          )
          (3): Conv2d(200, 200, kernel_size=(3, 3), stride=(1, 1), padding=(2, 2), dilation=(2, 2), groups=200, bias=False)
          (4): BatchNorm2d(200, eps=1e-05, momentum=0.1, affine=True, track_running_stats=True)
          (5): Identity()
          (6): h_swish(
            (sigmoid): h_sigmoid(
              (relu): ReLU6(inplace=True)
            )
          )
          (7): Conv2d(200, 80, kernel_size=(1, 1), stride=(1, 1), bias=False)
          (8): BatchNorm2d(80, eps=1e-05, momentum=0.1, affine=True, track_running_stats=True)
        )
      )
      (9): InvertedResidual(
        (conv): Sequential(
          (0): Conv2d(80, 184, kernel_size=(1, 1), stride=(1, 1), bias=False)
          (1): BatchNorm2d(184, eps=1e-05, momentum=0.1, affine=True, track_running_stats=True)
          (2): h_swish(
            (sigmoid): h_sigmoid(
              (relu): ReLU6(inplace=True)
            )
          )
          (3): Conv2d(184, 184, kernel_size=(3, 3), stride=(1, 1), padding=(2, 2), dilation=(2, 2), groups=184, bias=False)
          (4): BatchNorm2d(184, eps=1e-05, momentum=0.1, affine=True, track_running_stats=True)
          (5): Identity()
          (6): h_swish(
            (sigmoid): h_sigmoid(
              (relu): ReLU6(inplace=True)
            )
          )
          (7): Conv2d(184, 80, kernel_size=(1, 1), stride=(1, 1), bias=False)
          (8): BatchNorm2d(80, eps=1e-05, momentum=0.1, affine=True, track_running_stats=True)
        )
      )
      (10): InvertedResidual(
        (conv): Sequential(
          (0): Conv2d(80, 184, kernel_size=(1, 1), stride=(1, 1), bias=False)
          (1): BatchNorm2d(184, eps=1e-05, momentum=0.1, affine=True, track_running_stats=True)
          (2): h_swish(
            (sigmoid): h_sigmoid(
              (relu): ReLU6(inplace=True)
            )
          )
          (3): Conv2d(184, 184, kernel_size=(3, 3), stride=(1, 1), padding=(2, 2), dilation=(2, 2), groups=184, bias=False)
          (4): BatchNorm2d(184, eps=1e-05, momentum=0.1, affine=True, track_running_stats=True)
          (5): Identity()
          (6): h_swish(
            (sigmoid): h_sigmoid(
              (relu): ReLU6(inplace=True)
            )
          )
          (7): Conv2d(184, 80, kernel_size=(1, 1), stride=(1, 1), bias=False)
          (8): BatchNorm2d(80, eps=1e-05, momentum=0.1, affine=True, track_running_stats=True)
        )
      )
      (11): InvertedResidual(
        (conv): Sequential(
          (0): Conv2d(80, 480, kernel_size=(1, 1), stride=(1, 1), bias=False)
          (1): BatchNorm2d(480, eps=1e-05, momentum=0.1, affine=True, track_running_stats=True)
          (2): h_swish(
            (sigmoid): h_sigmoid(
              (relu): ReLU6(inplace=True)
            )
          )
          (3): Conv2d(480, 480, kernel_size=(3, 3), stride=(1, 1), padding=(2, 2), dilation=(2, 2), groups=480, bias=False)
          (4): BatchNorm2d(480, eps=1e-05, momentum=0.1, affine=True, track_running_stats=True)
          (5): SELayer(
            (avg_pool): AdaptiveAvgPool2d(output_size=1)
            (fc): Sequential(
              (0): Linear(in_features=480, out_features=120, bias=True)
              (1): ReLU(inplace=True)
              (2): Linear(in_features=120, out_features=480, bias=True)
              (3): h_sigmoid(
                (relu): ReLU6(inplace=True)
              )
            )
          )
          (6): h_swish(
            (sigmoid): h_sigmoid(
              (relu): ReLU6(inplace=True)
            )
          )
          (7): Conv2d(480, 112, kernel_size=(1, 1), stride=(1, 1), bias=False)
          (8): BatchNorm2d(112, eps=1e-05, momentum=0.1, affine=True, track_running_stats=True)
        )
      )
      (12): InvertedResidual(
        (conv): Sequential(
          (0): Conv2d(112, 672, kernel_size=(1, 1), stride=(1, 1), bias=False)
          (1): BatchNorm2d(672, eps=1e-05, momentum=0.1, affine=True, track_running_stats=True)
          (2): h_swish(
            (sigmoid): h_sigmoid(
              (relu): ReLU6(inplace=True)
            )
          )
          (3): Conv2d(672, 672, kernel_size=(3, 3), stride=(1, 1), padding=(2, 2), dilation=(2, 2), groups=672, bias=False)
          (4): BatchNorm2d(672, eps=1e-05, momentum=0.1, affine=True, track_running_stats=True)
          (5): SELayer(
            (avg_pool): AdaptiveAvgPool2d(output_size=1)
            (fc): Sequential(
              (0): Linear(in_features=672, out_features=168, bias=True)
              (1): ReLU(inplace=True)
              (2): Linear(in_features=168, out_features=672, bias=True)
              (3): h_sigmoid(
                (relu): ReLU6(inplace=True)
              )
            )
          )
          (6): h_swish(
            (sigmoid): h_sigmoid(
              (relu): ReLU6(inplace=True)
            )
          )
          (7): Conv2d(672, 112, kernel_size=(1, 1), stride=(1, 1), bias=False)
          (8): BatchNorm2d(112, eps=1e-05, momentum=0.1, affine=True, track_running_stats=True)
        )
      )
      (13): InvertedResidual(
        (conv): Sequential(
          (0): Conv2d(112, 672, kernel_size=(1, 1), stride=(1, 1), bias=False)
          (1): BatchNorm2d(672, eps=1e-05, momentum=0.1, affine=True, track_running_stats=True)
          (2): h_swish(
            (sigmoid): h_sigmoid(
              (relu): ReLU6(inplace=True)
            )
          )
          (3): Conv2d(672, 672, kernel_size=(5, 5), stride=(1, 1), padding=(2, 2), groups=672, bias=False)
          (4): BatchNorm2d(672, eps=1e-05, momentum=0.1, affine=True, track_running_stats=True)
          (5): SELayer(
            (avg_pool): AdaptiveAvgPool2d(output_size=1)
            (fc): Sequential(
              (0): Linear(in_features=672, out_features=168, bias=True)
              (1): ReLU(inplace=True)
              (2): Linear(in_features=168, out_features=672, bias=True)
              (3): h_sigmoid(
                (relu): ReLU6(inplace=True)
              )
            )
          )
          (6): h_swish(
            (sigmoid): h_sigmoid(
              (relu): ReLU6(inplace=True)
            )
          )
          (7): Conv2d(672, 160, kernel_size=(1, 1), stride=(1, 1), bias=False)
          (8): BatchNorm2d(160, eps=1e-05, momentum=0.1, affine=True, track_running_stats=True)
        )
      )
      (14): InvertedResidual(
        (conv): Sequential(
          (0): Conv2d(160, 960, kernel_size=(1, 1), stride=(1, 1), bias=False)
          (1): BatchNorm2d(960, eps=1e-05, momentum=0.1, affine=True, track_running_stats=True)
          (2): h_swish(
            (sigmoid): h_sigmoid(
              (relu): ReLU6(inplace=True)
            )
          )
          (3): Conv2d(960, 960, kernel_size=(5, 5), stride=(1, 1), padding=(2, 2), groups=960, bias=False)
          (4): BatchNorm2d(960, eps=1e-05, momentum=0.1, affine=True, track_running_stats=True)
          (5): SELayer(
            (avg_pool): AdaptiveAvgPool2d(output_size=1)
            (fc): Sequential(
              (0): Linear(in_features=960, out_features=240, bias=True)
              (1): ReLU(inplace=True)
              (2): Linear(in_features=240, out_features=960, bias=True)
              (3): h_sigmoid(
                (relu): ReLU6(inplace=True)
              )
            )
          )
          (6): h_swish(
            (sigmoid): h_sigmoid(
              (relu): ReLU6(inplace=True)
            )
          )
          (7): Conv2d(960, 160, kernel_size=(1, 1), stride=(1, 1), bias=False)
          (8): BatchNorm2d(160, eps=1e-05, momentum=0.1, affine=True, track_running_stats=True)
        )
      )
    )
  )
  (enrich_module): PPM(
    (features): ModuleList(
      (0): Sequential(
        (0): AdaptiveAvgPool2d(output_size=1)
        (1): Conv2d(160, 40, kernel_size=(1, 1), stride=(1, 1), bias=False)
        (2): BatchNorm2d(40, eps=1e-05, momentum=0.1, affine=True, track_running_stats=True)
        (3): ReLU(inplace=True)
      )
      (1): Sequential(
        (0): AdaptiveAvgPool2d(output_size=2)
        (1): Conv2d(160, 40, kernel_size=(1, 1), stride=(1, 1), bias=False)
        (2): BatchNorm2d(40, eps=1e-05, momentum=0.1, affine=True, track_running_stats=True)
        (3): ReLU(inplace=True)
      )
      (2): Sequential(
        (0): AdaptiveAvgPool2d(output_size=3)
        (1): Conv2d(160, 40, kernel_size=(1, 1), stride=(1, 1), bias=False)
        (2): BatchNorm2d(40, eps=1e-05, momentum=0.1, affine=True, track_running_stats=True)
        (3): ReLU(inplace=True)
      )
      (3): Sequential(
        (0): AdaptiveAvgPool2d(output_size=6)
        (1): Conv2d(160, 40, kernel_size=(1, 1), stride=(1, 1), bias=False)
        (2): BatchNorm2d(40, eps=1e-05, momentum=0.1, affine=True, track_running_stats=True)
        (3): ReLU(inplace=True)
      )
    )
  )
  (cls): Sequential(
    (0): Conv2d(320, 80, kernel_size=(3, 3), stride=(1, 1), padding=(1, 1), bias=False)
    (1): BatchNorm2d(80, eps=1e-05, momentum=0.1, affine=True, track_running_stats=True)
    (2): ReLU(inplace=True)
    (3): Dropout2d(p=0.1, inplace=False)
    (4): Conv2d(80, 19, kernel_size=(1, 1), stride=(1, 1))
  )
  (aux): Sequential(
    (0): Conv2d(160, 40, kernel_size=(3, 3), stride=(1, 1), padding=(1, 1), bias=False)
    (1): BatchNorm2d(40, eps=1e-05, momentum=0.1, affine=True, track_running_stats=True)
    (2): ReLU(inplace=True)
    (3): Dropout2d(p=0.1, inplace=False)
    (4): Conv2d(40, 19, kernel_size=(1, 1), stride=(1, 1))
  )
)
Totally 1401 samples in train set.
Starting Checking image&label pair train list...
Checking image&label pair train list done!
Totally 500 samples in val set.
Starting Checking image&label pair val list...
Checking image&label pair val list done!
[2022-05-04 02:29:19,984 INFO train.py line 363 377246] >>>>>>>>>>>>>>>> Start Evaluation >>>>>>>>>>>>>>>>
…
