…
sync_bn: False
train_gpu: [0]
train_h: 473
train_list: ./list/fine_train_labeled_engg5104.txt
train_w: 473
use_aspp: False
use_ocr: False
use_ppm: True
val_list: ./list/fine_val_engg5104.txt
weight: None
weight_decay: 0.0001
workers: 16
world_size: 1
zoom_factor: 8
[2022-05-02 08:29:35,367 INFO train.py line 152 2981197] => creating model ...
[2022-05-02 08:29:35,367 INFO train.py line 153 2981197] Classes: 19
[2022-05-02 08:29:35,367 INFO train.py line 154 2981197] PSPNet(
  (criterion): CrossEntropyLoss()
  (backbone): MobileNetV2(
    (features): Sequential(
      (0): Sequential(
        (0): Conv2d(3, 32, kernel_size=(3, 3), stride=(2, 2), padding=(1, 1), bias=False)
        (1): BatchNorm2d(32, eps=1e-05, momentum=0.1, affine=True, track_running_stats=True)
        (2): ReLU6(inplace=True)
      )
      (1): InvertedResidual(
        (conv): Sequential(
          (0): Conv2d(32, 32, kernel_size=(3, 3), stride=(1, 1), padding=(1, 1), groups=32, bias=False)
          (1): BatchNorm2d(32, eps=1e-05, momentum=0.1, affine=True, track_running_stats=True)
          (2): ReLU6(inplace=True)
          (3): Conv2d(32, 16, kernel_size=(1, 1), stride=(1, 1), bias=False)
          (4): BatchNorm2d(16, eps=1e-05, momentum=0.1, affine=True, track_running_stats=True)
        )
      )
      (2): InvertedResidual(
        (conv): Sequential(
          (0): Conv2d(16, 96, kernel_size=(1, 1), stride=(1, 1), bias=False)
          (1): BatchNorm2d(96, eps=1e-05, momentum=0.1, affine=True, track_running_stats=True)
          (2): ReLU6(inplace=True)
          (3): Conv2d(96, 96, kernel_size=(3, 3), stride=(2, 2), padding=(1, 1), groups=96, bias=False)
          (4): BatchNorm2d(96, eps=1e-05, momentum=0.1, affine=True, track_running_stats=True)
          (5): ReLU6(inplace=True)
          (6): Conv2d(96, 24, kernel_size=(1, 1), stride=(1, 1), bias=False)
          (7): BatchNorm2d(24, eps=1e-05, momentum=0.1, affine=True, track_running_stats=True)
        )
      )
      (3): InvertedResidual(
        (conv): Sequential(
          (0): Conv2d(24, 144, kernel_size=(1, 1), stride=(1, 1), bias=False)
          (1): BatchNorm2d(144, eps=1e-05, momentum=0.1, affine=True, track_running_stats=True)
          (2): ReLU6(inplace=True)
          (3): Conv2d(144, 144, kernel_size=(3, 3), stride=(1, 1), padding=(1, 1), groups=144, bias=False)
          (4): BatchNorm2d(144, eps=1e-05, momentum=0.1, affine=True, track_running_stats=True)
          (5): ReLU6(inplace=True)
          (6): Conv2d(144, 24, kernel_size=(1, 1), stride=(1, 1), bias=False)
          (7): BatchNorm2d(24, eps=1e-05, momentum=0.1, affine=True, track_running_stats=True)
        )
      )
      (4): InvertedResidual(
        (conv): Sequential(
          (0): Conv2d(24, 144, kernel_size=(1, 1), stride=(1, 1), bias=False)
          (1): BatchNorm2d(144, eps=1e-05, momentum=0.1, affine=True, track_running_stats=True)
          (2): ReLU6(inplace=True)
          (3): Conv2d(144, 144, kernel_size=(3, 3), stride=(2, 2), padding=(1, 1), groups=144, bias=False)
          (4): BatchNorm2d(144, eps=1e-05, momentum=0.1, affine=True, track_running_stats=True)
          (5): ReLU6(inplace=True)
          (6): Conv2d(144, 32, kernel_size=(1, 1), stride=(1, 1), bias=False)
          (7): BatchNorm2d(32, eps=1e-05, momentum=0.1, affine=True, track_running_stats=True)
        )
      )
      (5): InvertedResidual(
        (conv): Sequential(
          (0): Conv2d(32, 192, kernel_size=(1, 1), stride=(1, 1), bias=False)
          (1): BatchNorm2d(192, eps=1e-05, momentum=0.1, affine=True, track_running_stats=True)
          (2): ReLU6(inplace=True)
          (3): Conv2d(192, 192, kernel_size=(3, 3), stride=(1, 1), padding=(1, 1), groups=192, bias=False)
          (4): BatchNorm2d(192, eps=1e-05, momentum=0.1, affine=True, track_running_stats=True)
          (5): ReLU6(inplace=True)
          (6): Conv2d(192, 32, kernel_size=(1, 1), stride=(1, 1), bias=False)
          (7): BatchNorm2d(32, eps=1e-05, momentum=0.1, affine=True, track_running_stats=True)
        )
      )
      (6): InvertedResidual(
        (conv): Sequential(
          (0): Conv2d(32, 192, kernel_size=(1, 1), stride=(1, 1), bias=False)
          (1): BatchNorm2d(192, eps=1e-05, momentum=0.1, affine=True, track_running_stats=True)
          (2): ReLU6(inplace=True)
          (3): Conv2d(192, 192, kernel_size=(3, 3), stride=(1, 1), padding=(1, 1), groups=192, bias=False)
          (4): BatchNorm2d(192, eps=1e-05, momentum=0.1, affine=True, track_running_stats=True)
          (5): ReLU6(inplace=True)
          (6): Conv2d(192, 32, kernel_size=(1, 1), stride=(1, 1), bias=False)
          (7): BatchNorm2d(32, eps=1e-05, momentum=0.1, affine=True, track_running_stats=True)
        )
      )
      (7): InvertedResidual(
        (conv): Sequential(
          (0): Conv2d(32, 192, kernel_size=(1, 1), stride=(1, 1), bias=False)
          (1): BatchNorm2d(192, eps=1e-05, momentum=0.1, affine=True, track_running_stats=True)
          (2): ReLU6(inplace=True)
          (3): Conv2d(192, 192, kernel_size=(3, 3), stride=(1, 1), padding=(1, 1), groups=192, bias=False)
          (4): BatchNorm2d(192, eps=1e-05, momentum=0.1, affine=True, track_running_stats=True)
          (5): ReLU6(inplace=True)
          (6): Conv2d(192, 64, kernel_size=(1, 1), stride=(1, 1), bias=False)
          (7): BatchNorm2d(64, eps=1e-05, momentum=0.1, affine=True, track_running_stats=True)
        )
      )
      (8): InvertedResidual(
        (conv): Sequential(
          (0): Conv2d(64, 384, kernel_size=(1, 1), stride=(1, 1), bias=False)
          (1): BatchNorm2d(384, eps=1e-05, momentum=0.1, affine=True, track_running_stats=True)
          (2): ReLU6(inplace=True)
          (3): Conv2d(384, 384, kernel_size=(3, 3), stride=(1, 1), padding=(2, 2), dilation=(2, 2), groups=384, bias=False)
          (4): BatchNorm2d(384, eps=1e-05, momentum=0.1, affine=True, track_running_stats=True)
          (5): ReLU6(inplace=True)
          (6): Conv2d(384, 64, kernel_size=(1, 1), stride=(1, 1), bias=False)
          (7): BatchNorm2d(64, eps=1e-05, momentum=0.1, affine=True, track_running_stats=True)
        )
      )
      (9): InvertedResidual(
        (conv): Sequential(
          (0): Conv2d(64, 384, kernel_size=(1, 1), stride=(1, 1), bias=False)
          (1): BatchNorm2d(384, eps=1e-05, momentum=0.1, affine=True, track_running_stats=True)
          (2): ReLU6(inplace=True)
          (3): Conv2d(384, 384, kernel_size=(3, 3), stride=(1, 1), padding=(2, 2), dilation=(2, 2), groups=384, bias=False)
          (4): BatchNorm2d(384, eps=1e-05, momentum=0.1, affine=True, track_running_stats=True)
          (5): ReLU6(inplace=True)
          (6): Conv2d(384, 64, kernel_size=(1, 1), stride=(1, 1), bias=False)
          (7): BatchNorm2d(64, eps=1e-05, momentum=0.1, affine=True, track_running_stats=True)
        )
      )
      (10): InvertedResidual(
        (conv): Sequential(
          (0): Conv2d(64, 384, kernel_size=(1, 1), stride=(1, 1), bias=False)
          (1): BatchNorm2d(384, eps=1e-05, momentum=0.1, affine=True, track_running_stats=True)
          (2): ReLU6(inplace=True)
          (3): Conv2d(384, 384, kernel_size=(3, 3), stride=(1, 1), padding=(2, 2), dilation=(2, 2), groups=384, bias=False)
          (4): BatchNorm2d(384, eps=1e-05, momentum=0.1, affine=True, track_running_stats=True)
          (5): ReLU6(inplace=True)
          (6): Conv2d(384, 64, kernel_size=(1, 1), stride=(1, 1), bias=False)
          (7): BatchNorm2d(64, eps=1e-05, momentum=0.1, affine=True, track_running_stats=True)
        )
      )
      (11): InvertedResidual(
        (conv): Sequential(
          (0): Conv2d(64, 384, kernel_size=(1, 1), stride=(1, 1), bias=False)
          (1): BatchNorm2d(384, eps=1e-05, momentum=0.1, affine=True, track_running_stats=True)
          (2): ReLU6(inplace=True)
          (3): Conv2d(384, 384, kernel_size=(3, 3), stride=(1, 1), padding=(2, 2), dilation=(2, 2), groups=384, bias=False)
          (4): BatchNorm2d(384, eps=1e-05, momentum=0.1, affine=True, track_running_stats=True)
          (5): ReLU6(inplace=True)
          (6): Conv2d(384, 96, kernel_size=(1, 1), stride=(1, 1), bias=False)
          (7): BatchNorm2d(96, eps=1e-05, momentum=0.1, affine=True, track_running_stats=True)
        )
      )
      (12): InvertedResidual(
        (conv): Sequential(
          (0): Conv2d(96, 576, kernel_size=(1, 1), stride=(1, 1), bias=False)
          (1): BatchNorm2d(576, eps=1e-05, momentum=0.1, affine=True, track_running_stats=True)
          (2): ReLU6(inplace=True)
          (3): Conv2d(576, 576, kernel_size=(3, 3), stride=(1, 1), padding=(2, 2), dilation=(2, 2), groups=576, bias=False)
          (4): BatchNorm2d(576, eps=1e-05, momentum=0.1, affine=True, track_running_stats=True)
          (5): ReLU6(inplace=True)
          (6): Conv2d(576, 96, kernel_size=(1, 1), stride=(1, 1), bias=False)
          (7): BatchNorm2d(96, eps=1e-05, momentum=0.1, affine=True, track_running_stats=True)
        )
      )
      (13): InvertedResidual(
        (conv): Sequential(
          (0): Conv2d(96, 576, kernel_size=(1, 1), stride=(1, 1), bias=False)
          (1): BatchNorm2d(576, eps=1e-05, momentum=0.1, affine=True, track_running_stats=True)
          (2): ReLU6(inplace=True)
          (3): Conv2d(576, 576, kernel_size=(3, 3), stride=(1, 1), padding=(2, 2), dilation=(2, 2), groups=576, bias=False)
          (4): BatchNorm2d(576, eps=1e-05, momentum=0.1, affine=True, track_running_stats=True)
          (5): ReLU6(inplace=True)
          (6): Conv2d(576, 96, kernel_size=(1, 1), stride=(1, 1), bias=False)
          (7): BatchNorm2d(96, eps=1e-05, momentum=0.1, affine=True, track_running_stats=True)
        )
      )
      (14): InvertedResidual(
        (conv): Sequential(
          (0): Conv2d(96, 576, kernel_size=(1, 1), stride=(1, 1), bias=False)
          (1): BatchNorm2d(576, eps=1e-05, momentum=0.1, affine=True, track_running_stats=True)
          (2): ReLU6(inplace=True)
          (3): Conv2d(576, 576, kernel_size=(3, 3), stride=(1, 1), padding=(2, 2), dilation=(2, 2), groups=576, bias=False)
          (4): BatchNorm2d(576, eps=1e-05, momentum=0.1, affine=True, track_running_stats=True)
          (5): ReLU6(inplace=True)
          (6): Conv2d(576, 160, kernel_size=(1, 1), stride=(1, 1), bias=False)
          (7): BatchNorm2d(160, eps=1e-05, momentum=0.1, affine=True, track_running_stats=True)
        )
      )
      (15): InvertedResidual(
        (conv): Sequential(
          (0): Conv2d(160, 960, kernel_size=(1, 1), stride=(1, 1), bias=False)
          (1): BatchNorm2d(960, eps=1e-05, momentum=0.1, affine=True, track_running_stats=True)
          (2): ReLU6(inplace=True)
          (3): Conv2d(960, 960, kernel_size=(3, 3), stride=(1, 1), padding=(4, 4), dilation=(4, 4), groups=960, bias=False)
          (4): BatchNorm2d(960, eps=1e-05, momentum=0.1, affine=True, track_running_stats=True)
          (5): ReLU6(inplace=True)
          (6): Conv2d(960, 160, kernel_size=(1, 1), stride=(1, 1), bias=False)
          (7): BatchNorm2d(160, eps=1e-05, momentum=0.1, affine=True, track_running_stats=True)
        )
      )
      (16): InvertedResidual(
        (conv): Sequential(
          (0): Conv2d(160, 960, kernel_size=(1, 1), stride=(1, 1), bias=False)
          (1): BatchNorm2d(960, eps=1e-05, momentum=0.1, affine=True, track_running_stats=True)
          (2): ReLU6(inplace=True)
          (3): Conv2d(960, 960, kernel_size=(3, 3), stride=(1, 1), padding=(4, 4), dilation=(4, 4), groups=960, bias=False)
          (4): BatchNorm2d(960, eps=1e-05, momentum=0.1, affine=True, track_running_stats=True)
          (5): ReLU6(inplace=True)
          (6): Conv2d(960, 160, kernel_size=(1, 1), stride=(1, 1), bias=False)
          (7): BatchNorm2d(160, eps=1e-05, momentum=0.1, affine=True, track_running_stats=True)
        )
      )
      (17): InvertedResidual(
        (conv): Sequential(
          (0): Conv2d(160, 960, kernel_size=(1, 1), stride=(1, 1), bias=False)
          (1): BatchNorm2d(960, eps=1e-05, momentum=0.1, affine=True, track_running_stats=True)
          (2): ReLU6(inplace=True)
          (3): Conv2d(960, 960, kernel_size=(3, 3), stride=(1, 1), padding=(4, 4), dilation=(4, 4), groups=960, bias=False)
          (4): BatchNorm2d(960, eps=1e-05, momentum=0.1, affine=True, track_running_stats=True)
          (5): ReLU6(inplace=True)
          (6): Conv2d(960, 320, kernel_size=(1, 1), stride=(1, 1), bias=False)
          (7): BatchNorm2d(320, eps=1e-05, momentum=0.1, affine=True, track_running_stats=True)
        )
      )
    )
  )
  (enrich_module): PPM(
    (features): ModuleList(
      (0): Sequential(
        (0): AdaptiveAvgPool2d(output_size=1)
        (1): Conv2d(320, 80, kernel_size=(1, 1), stride=(1, 1), bias=False)
        (2): BatchNorm2d(80, eps=1e-05, momentum=0.1, affine=True, track_running_stats=True)
        (3): ReLU(inplace=True)
      )
      (1): Sequential(
        (0): AdaptiveAvgPool2d(output_size=2)
        (1): Conv2d(320, 80, kernel_size=(1, 1), stride=(1, 1), bias=False)
        (2): BatchNorm2d(80, eps=1e-05, momentum=0.1, affine=True, track_running_stats=True)
        (3): ReLU(inplace=True)
      )
      (2): Sequential(
        (0): AdaptiveAvgPool2d(output_size=3)
        (1): Conv2d(320, 80, kernel_size=(1, 1), stride=(1, 1), bias=False)
        (2): BatchNorm2d(80, eps=1e-05, momentum=0.1, affine=True, track_running_stats=True)
        (3): ReLU(inplace=True)
      )
      (3): Sequential(
        (0): AdaptiveAvgPool2d(output_size=6)
        (1): Conv2d(320, 80, kernel_size=(1, 1), stride=(1, 1), bias=False)
        (2): BatchNorm2d(80, eps=1e-05, momentum=0.1, affine=True, track_running_stats=True)
        (3): ReLU(inplace=True)
      )
    )
  )
  (cls): Sequential(
    (0): Conv2d(640, 80, kernel_size=(3, 3), stride=(1, 1), padding=(1, 1), bias=False)
    (1): BatchNorm2d(80, eps=1e-05, momentum=0.1, affine=True, track_running_stats=True)
    (2): ReLU(inplace=True)
    (3): Dropout2d(p=0.1, inplace=False)
    (4): Conv2d(80, 19, kernel_size=(1, 1), stride=(1, 1))
  )
  (aux): Sequential(
    (0): Conv2d(96, 40, kernel_size=(3, 3), stride=(1, 1), padding=(1, 1), bias=False)
    (1): BatchNorm2d(40, eps=1e-05, momentum=0.1, affine=True, track_running_stats=True)
    (2): ReLU(inplace=True)
    (3): Dropout2d(p=0.1, inplace=False)
    (4): Conv2d(40, 19, kernel_size=(1, 1), stride=(1, 1))
  )
)
Totally 1401 samples in train set.
Starting Checking image&label pair train list...
Checking image&label pair train list done!
Totally 500 samples in val set.
Starting Checking image&label pair val list...
Checking image&label pair val list done!
[2022-05-02 08:29:38,562 INFO train.py line 363 2981197] >>>>>>>>>>>>>>>> Start Evaluation >>>>>>>>>>>>>>>>
…
